data.pth (torch, 5279 bytes, 6 tensors)

l1.weight f4 [8, 54]
0.34229252 0.4006698 -0.031794835 -0.036257256 -0.13469431 -0.3136323 0.69846416 -0.20352277
-0.13829698 -0.04910602 -0.11501717 0.079834096 -0.2555617 -0.11400631 -0.116089694 -0.14808267
-0.06229953 -0.06165267 -0.018655784 -0.15846092 0.7331646 -0.10660543 -0.41392127 0.4967693
-0.2127083 -0.4141382 -0.4138032 -0.19822581 -0.18014944 0.03666437 -0.12527741 0.26427877
0.20630376 -0.15641576 -0.024326341 -0.021823153 -0.17748314 -0.0287752 -0.17502804 -0.10447765
-0.14467056 -0.18860173 0.3021279 -0.15459102 0.058556307 -0.07869104 0.6995579 0.2475838
0.0110211065 -0.15260567 0.031650443 0.009390047 -0.021152452 0.10776659 0.23084436 -0.1733491
0.7659118 0.36948124 0.20520169 0.35476097 -0.5044605 0.7186082 0.6337639 0.21351513
0.73773915 -0.005819175 0.23833531 0.09869848 0.38593003 0.09790903 0.40663406 0.30522916
0.5090104 0.23527378 -0.50779706 0.13153173 0.18664226 -0.36174837 0.4617753 0.3688957
0.3047439 0.008257045 0.79055077 0.41857687 0.15777956 -0.36861777 -0.09044306 0.6434904
0.439258 0.54644156 -0.21803671 0.43855906 0.32902467 0.4971671 0.4301857 0.64123726
-0.26099232 0.09389359 0.2536472 0.58315426 -0.50801796 -0.32726082 0.40518767 0.053277194
0.009558435 0.54212886 0.50979203 0.121655606 0.56798714 0.31233236 -0.017988058 0.107116416
-0.24155855 -0.28808537 0.54151577 0.6340087 0.55815154 0.18759006 0.32207412 -0.04184535
-0.23304777 -0.41942796 0.4366673 -0.31903923 0.00048704445 0.32553318 0.39897224 -0.26347193
0.52343166 -0.5622554 -0.49662638 0.47087538 0.39995256 -0.4967739 -0.49658737 -0.52731514
0.38473004 0.18797602 -0.04676832 0.3293399 0.3481085 0.22823422 -0.020215683 0.40135488
-0.3156617 0.36817887 0.26649666 0.32824355 0.29527107 0.5811128 0.20803231 -0.48539415
-0.08678757 0.1811335 0.8816152 0.35238895 0.46039763 -0.20830712 -0.18354316 0.20986274
0.3822158 0.38299975 0.31516835 0.2814669 0.6913456 -0.06910004 -0.053212423 -0.41162342
-0.35909358 -0.31434032 -0.2265862 -0.17714871 0.45726457 0.3216305 -0.1199282 0.7439147
-0.07292256 -0.59078366 0.052058246 -0.0029443523 -0.21340358 -0.1196975 -0.35896456 0.4375319
-0.07089537 0.4709416 -0.06643281 -0.19718115 -0.10669597 0.23273359 0.45133802 0.17864682
-0.12775417 -0.2854305 0.15128514 0.2128491 0.19973777 -0.08259457 0.37481606 -0.27039984
-0.17034136 0.114207864 -0.38433006 0.464917 -0.2934745 0.33209246 -0.0025291068 0.36135226
0.83050036 0.47189695 -0.12793489 0.043894246 0.23274258 0.31729868 -0.11856475 0.219588
0.31043229 0.37018937 0.41391337 -0.1268761 0.19763912 -0.024773952 -0.42991367 -0.59326845
-0.3067665 -0.23308565 0.36885062 0.2820078 0.33126226 0.6035676 -0.12066196 1.0915259
0.51241714 -0.10815669 -0.28849667 0.20357707 -0.4297745 1.0131156 0.17887129 0.23807281
-0.1658059 0.29958683 0.27747604 0.3130871 0.40878576 0.13681698 0.23261212 -0.29487458
0.19170655 0.28690517 0.595623 -0.33726525 0.5038514 -0.20270999 -0.25161952 -0.05655527
00000000: f740 af3e 9824 cd3e 4d3b 02bd 7d82 14bd
00000010: 4eed 09be 6a94 a0be 8cce 323f 4668 50be
00000020: b99d 0dbe 6523 49bd 1f8e ebbd 0f80 a33d
00000030: fcd8 82be 247c e9bd 6fc0 edbd fca2 17be
00000040: cb2d 7fbd 8387 7cbd 04d4 98bc 9443 22be
00000050: adb0 3b3f f353 dabd 7ded d3be 8c58 fe3e
00000060: 34d0 59be ec09 d4be 03de d3be b5fb 4abe
00000070: 1879 38be 612d 163d b948 00be 8c4f 873e
00000080: 4b41 533e 742b 20be 0948 c7bc 78c6 b2bc
00000090: 24be 35be f8b9 ebbc 8d3a 33be 61f8 d5bd
000000a0: 8524 14be d020 41be 82b0 9a3e 1c4d 1ebe
000000b0: bdd8 6f3d c528 a1bd 3a16 333f 9c86 7d3e
000000c0: df91 343c a944 1cbe e5a3 013d b6d8 193c
000000d0: e847 adbc bbb4 dc3d 7762 6c3e 6d82 31be
000000e0: cc12 443f a52c bd3e 6420 523e 3ba3 b53e
000000f0: 5324 01bf b5f6 373f 5a3e 223f b6a3 5a3e
00000100: 79dc 3c3f c7ae bebb 2c0e 743e 6e22 ca3d
00000110: 9f98 c53e 8884 c83d 5732 d03e ff46 9c3e
00000120: 814e 023f 9ceb 703e fdfe 01bf 41b0 063e
00000130: 261f 3f3e 1537 b9be d06d ec3e e6df bc3e
00000140: 6407 9c3e 8f48 073c 8961 4a3f b54f d63e
00000150: f790 213e 78bb bcbe 363a b9bd c9bb 243f
00000160: 6de6 e03e 98e3 0b3f 0445 5fbe d08a e03e
00000170: ec75 a83e b08c fe3e 4d41 dc3e 2028 243f
00000180: c9a0 85be 484b c03d 0cde 813e 9949 153f
00000190: 770d 02bf bb8e a7be c274 cf3e 3039 5a3d
000001a0: fb9a 1c3c f5c8 0a3f bb81 023f 9326 f93d
000001b0: 9b67 113f 07ea 9f3e b15b 93bc da5f db3d
000001c0: 205b 77be ed7f 93be c7a0 0a3f 654e 223f
000001d0: 05e3 0e3f 9c17 403e e6e6 a43e 0866 2bbd
000001e0: 13a4 6ebe 43bf d6be db92 df3e 1c59 a3be
000001f0: 005a ff39 49ac a63e 1746 cc3e cbe5 86be
00000200: 9eff 053f f8ef 0fbf d045 febe 9416 f13e
00000210: 95c6 cc3e 2659 febe b340 febe 20fe 06bf
00000220: 56fb c43e c97c 403e 2390 3fbd 3d9f a83e
00000230: 473b b23e 3bb6 693e 5c9b a5bc 637e cd3e
00000240: 699e a1be f181 bc3e 4072 883e 8a0f a83e
00000250: c52d 973e cfc3 143f 6c06 553e 9585 f8be
00000260: aebd b1bd 0f7b 393e 89b1 613f 536c b43e
00000270: 3db9 eb3e 764e 55be bdf2 3bbe 42e6 563e
00000280: cab1 c33e 8b18 c43e bf5d a13e 6e1c 903e
00000290: 06fc 303f 5284 8dbd 45f5 59bd 4ec0 d2be
000002a0: 1ddb b7be 37f1 a0be 3606 68be 7966 35be
000002b0: 951e ea3e c1ac a43e eb9c f5bd 3271 3e3f
000002c0: 6c58 95bd 993d 17bf 073b 553d 09f6 40bb
000002d0: 7886 5abe f623 f5bd 34ca b7be 2e04 e03e
000002e0: 9731 91bd 421f f13e ed0d 88bd dbe9 49be
000002f0: 6b83 dabd b751 6e3e c715 e73e 31ef 363e
00000300: fdd1 02be f223 92be 7eea 1a3e 1df5 593e
00000310: 0f88 4c3e 5827 a9bd e4e7 bf3e d971 8abe
00000320: f76d 2ebe d0e5 e93d e9c6 c4be 9a09 ee3e
00000330: 4a42 96be 0608 aa3e 5fbf 25bb 2a03 b93e
00000340: ac9b 543f 7a9c f13e 5d01 03be 74ca 333d
00000350: 1254 6e3e f974 a23e 13d2 f2bd addb 603e
00000360: fbf0 9e3e 7689 bd3e 74ec d33e cfeb 01be
00000370: e961 4a3e bef2 cabc a51d dcbe 71e0 17bf
00000380: 8010 9dbe 01ae 6ebe fdd9 bc3e 5463 903e
00000390: 359b a93e 6883 1a3f 9e1d f7bd 1fb7 8b3f
000003a0: c52d 033f 4181 ddbd d6b5 93be 8276 503e
000003b0: 670b dcbe c6ad 813f 092a 373e 5cc9 733e
000003c0: 06c9 29be 7263 993e 5711 8e3e f44c a03e
000003d0: 5e4c d13e c019 0c3e df31 6e3e cdf9 96be
000003e0: b94e 443e 3ce5 923e c07a 183f 08ae acbe
000003f0: 68fc 003f 3593 4fbe 46d4 80be 80a6 67bd

l1.bias f4 [8]
0.41392297 0.50820017 0.49660024 0.359142 0.42990825 0.78773135 0.8272894 0.902924
00000000: b6ed d33e 6819 023f 6342 fe3e 76e1 b73e
00000010: ef1c dc3e c3a8 493f 3dc9 533f 0726 673f

l2.weight f4 [8, 8]
0.059965663 0.96376 0.71778136 1.2909272 0.16444239 -1.220305 0.80555314 0.20662703
-0.06614792 -0.20604433 -0.28709826 -0.016848922 -0.059659332 -0.0007247396 0.018035403 0.08936248
1.1728243 -0.8897036 0.49401104 0.21549164 0.5029032 -0.018780107 0.78648967 1.1979234
-0.09480322 0.47678322 0.249337 -0.8234323 -1.1768167 1.2098953 0.45416862 0.90276283
-0.008566989 0.14109509 0.17541927 -0.1438226 -0.23210299 -0.2997575 0.076472566 -0.39609239
-0.9809724 1.1959882 -0.5650503 0.5777196 1.30936 1.1643417 -0.19819558 -0.16394363
-1.1373627 -0.10141934 -1.3835739 0.4665698 0.23168658 0.34983945 0.7799579 0.7944933
-0.617095 0.5264136 0.7574782 -0.55983883 -0.754218 0.6677464 0.7533142 0.30390546
00000000: 8e9e 753d fab8 763f 85c0 373f 1a3d a53f
00000010: 9663 283e f432 9cbf bb38 4e3f 0996 533e
00000020: 9078 87bd 49fd 52be 8bfe 92be c006 8abc
00000030: 585d 74bd 74fc 3dba fbbe 933c ad03 b73d
00000040: 1b1f 963f 9dc3 63bf 04ef fc3e d7a9 5c3e
00000050: 44be 003f bdd8 99bc 6357 493f 8e55 993f
00000060: 3128 c2bd ee1c f43e 3352 7f3e 76cc 52bf
00000070: eea1 96bf d9dd 9a3f ca88 e83e 771b 673f
00000080: 8e5c 0cbc 3b7b 103e 1ca1 333e 3b46 13be
00000090: 68ac 6dbe d179 99be a69d 9c3d 9fcc cabe
000000a0: 0221 7bbf 2416 993f 23a7 10bf 6fe5 133f
000000b0: 1c99 a73f 2609 953f c8f3 4abe d7e0 27be
000000c0: 1a95 91bf f1b4 cfbd f318 b1bf 3de2 ee3e
000000d0: 3f3f 6d3e 281e b33e 52ab 473f ea63 4b3f
000000e0: f0f9 1dbf 0bc3 063f 17ea 413f 9951 0fbf
000000f0: 6e14 41bf 6ef1 2a3f 33d9 403f 7f99 9b3e

l2.bias f4 [8]
-0.22549908 -0.25542587 0.49313912 0.7128834 -0.41920504 0.6425726 0.43532404 0.39119774
00000000: 3be9 66be 2ec7 82be bb7c fc3e 877f 363f
00000010: 0ba2 d6be a37f 243f cbe2 de3e 124b c83e

l3.weight f4 [7, 8]
0.52930456 0.054615457 -1.2389758 -0.9859979 -0.028353374 0.38390297 -1.1377261 -0.16359276
0.17825739 0.33581668 -0.12733167 -1.2380143 -0.21763709 0.07903749 0.7386144 -1.3325924
0.5091094 0.14258273 -0.7603667 0.280827 -0.201243 -0.6137787 -0.93111575 0.7448759
-1.3693348 0.12046757 -0.70308405 -0.9912899 -0.04136239 0.8792607 0.08843915 -0.7722075
-1.2259599 -0.15692532 0.3939853 0.7573445 -0.40336972 -1.2739902 -1.2321887 0.45080337
-1.0255275 -0.18726379 -0.4606987 0.3681575 -0.02938697 0.012309064 0.90522313 0.35596564
0.5258649 0.12333017 0.56444013 -0.766439 -0.018150648 -0.8650598 -0.48003328 -0.1735964
00000000: 8180 073f 75b4 5f3d c296 9ebf 5c6a 7cbf
00000010: 5645 e8bc ee8e c43e 02a1 91bf dc84 27be
00000020: 1b89 363e 2af0 ab3e 3c63 02be 4177 9ebf
00000030: 42dc 5ebe 68de a13d d515 3d3f 6392 aabf
00000040: fe54 023f 3501 123e 64a7 42bf 8ec8 8f3e
00000050: a512 4ebe 9a20 1dbf 9a5d 6ebf 30b0 3e3f
00000060: 5d46 afbf b4b7 f63d 51fd 33bf 2dc5 7dbf
00000070: 9c6b 29bd 3b17 613f 961f b53d 64af 45bf
00000080: 41ec 9cbf 08b1 20be 71b8 c93e 54e1 413f
00000090: 7a86 cebe 1c12 a3bf 5cb8 9dbf b3cf e63e
000000a0: 7c44 83bf 14c2 3fbe b3e0 ebbe 247f bc3e
000000b0: f1bc f0bc f5ab 493c b4bc 673f 2141 b63e
000000c0: 159f 063f 8794 fc3d 267f 103f 5935 44bf
000000d0: abb0 94bc 8f74 5dbf ecc6 f5be 41c3 31be

l3.bias f4 [7]
0.21845971 -0.33081678 -0.31546924 0.2984296 0.13705361 -0.24605131 -0.18027742
00000000: e7b3 5f3e d160 a9be 2f85 a1be c4cb 983e
00000010: c857 0c3e e0f4 7bbe a59a 38be
